Model: "sequential"
_________________________________________________________________
Layer (type)                 Output Shape              Param #   
=================================================================
conv2d (Conv2D)              (None, 30, 30, 32)        896       
_________________________________________________________________
batch_normalization (BatchNo (None, 30, 30, 32)        128       
_________________________________________________________________
activation (Activation)      (None, 30, 30, 32)        0         
_________________________________________________________________
conv2d_1 (Conv2D)            (None, 28, 28, 32)        9248      
_________________________________________________________________
batch_normalization_1 (Batch (None, 28, 28, 32)        128       
_________________________________________________________________
activation_1 (Activation)    (None, 28, 28, 32)        0         
_________________________________________________________________
max_pooling2d (MaxPooling2D) (None, 14, 14, 32)        0         
_________________________________________________________________
dropout (Dropout)            (None, 14, 14, 32)        0         
_________________________________________________________________
conv2d_2 (Conv2D)            (None, 14, 14, 64)        18496     
_________________________________________________________________
batch_normalization_2 (Batch (None, 14, 14, 64)        256       
_________________________________________________________________
activation_2 (Activation)    (None, 14, 14, 64)        0         
_________________________________________________________________
conv2d_3 (Conv2D)            (None, 14, 14, 64)        36928     
_________________________________________________________________
batch_normalization_3 (Batch (None, 14, 14, 64)        256       
_________________________________________________________________
activation_3 (Activation)    (None, 14, 14, 64)        0         
_________________________________________________________________
max_pooling2d_1 (MaxPooling2 (None, 7, 7, 64)          0         
_________________________________________________________________
dropout_1 (Dropout)          (None, 7, 7, 64)          0         
_________________________________________________________________
conv2d_4 (Conv2D)            (None, 7, 7, 128)         73856     
_________________________________________________________________
batch_normalization_4 (Batch (None, 7, 7, 128)         512       
_________________________________________________________________
activation_4 (Activation)    (None, 7, 7, 128)         0         
_________________________________________________________________
conv2d_5 (Conv2D)            (None, 7, 7, 128)         147584    
_________________________________________________________________
batch_normalization_5 (Batch (None, 7, 7, 128)         512       
_________________________________________________________________
activation_5 (Activation)    (None, 7, 7, 128)         0         
_________________________________________________________________
max_pooling2d_2 (MaxPooling2 (None, 3, 3, 128)         0         
_________________________________________________________________
dropout_2 (Dropout)          (None, 3, 3, 128)         0         
_________________________________________________________________
flatten (Flatten)            (None, 1152)              0         
_________________________________________________________________
dense (Dense)                (None, 1024)              1180672   
_________________________________________________________________
dense_1 (Dense)              (None, 10)                10250     
=================================================================
Total params: 1,479,722
Trainable params: 1,478,826
Non-trainable params: 896
_________________________________________________________________
Train on 50000 samples, validate on 10000 samples
Epoch 1/100
50000/50000 [==============================] - 9s 179us/sample - loss: 1.7630 - accuracy: 0.4869 - val_loss: 2.2265 - val_accuracy: 0.3569
…
