Model: "sequential_1"
_________________________________________________________________
Layer (type)                 Output Shape              Param #   
=================================================================
conv2d_1 (Conv2D)            (None, 32, 32, 32)        2432      
_________________________________________________________________
activation_1 (Activation)    (None, 32, 32, 32)        0         
_________________________________________________________________
conv2d_2 (Conv2D)            (None, 32, 32, 32)        9248      
_________________________________________________________________
activation_2 (Activation)    (None, 32, 32, 32)        0         
_________________________________________________________________
max_pooling2d_1 (MaxPooling2 (None, 16, 16, 32)        0         
_________________________________________________________________
conv2d_3 (Conv2D)            (None, 16, 16, 64)        51264     
_________________________________________________________________
activation_3 (Activation)    (None, 16, 16, 64)        0         
_________________________________________________________________
conv2d_4 (Conv2D)            (None, 16, 16, 64)        36928     
_________________________________________________________________
activation_4 (Activation)    (None, 16, 16, 64)        0         
_________________________________________________________________
max_pooling2d_2 (MaxPooling2 (None, 8, 8, 64)          0         
_________________________________________________________________
conv2d_5 (Conv2D)            (None, 8, 8, 128)         73856     
_________________________________________________________________
activation_5 (Activation)    (None, 8, 8, 128)         0         
_________________________________________________________________
conv2d_6 (Conv2D)            (None, 8, 8, 256)         295168    
_________________________________________________________________
activation_6 (Activation)    (None, 8, 8, 256)         0         
_________________________________________________________________
flatten_1 (Flatten)          (None, 16384)             0         
_________________________________________________________________
dense_1 (Dense)              (None, 1024)              16778240  
_________________________________________________________________
dense_2 (Dense)              (None, 10)                10250     
=================================================================
Total params: 17,257,386
Trainable params: 17,257,386
Non-trainable params: 0
_________________________________________________________________
None
Train on 50000 samples, validate on 10000 samples
Epoch 1/100
50000/50000 [==============================] - 25s 510us/step - loss: 1.5549 - accuracy: 0.4335 - val_loss: 1.4661 - val_accuracy: 0.4654
…
