Model: "sequential_1"
_________________________________________________________________
Layer (type)                 Output Shape              Param #   
=================================================================
conv2d_1 (Conv2D)            (None, 30, 30, 32)        896       
_________________________________________________________________
activation_1 (Activation)    (None, 30, 30, 32)        0         
_________________________________________________________________
conv2d_2 (Conv2D)            (None, 28, 28, 32)        9248      
_________________________________________________________________
activation_2 (Activation)    (None, 28, 28, 32)        0         
_________________________________________________________________
max_pooling2d_1 (MaxPooling2 (None, 14, 14, 32)        0         
_________________________________________________________________
conv2d_3 (Conv2D)            (None, 14, 14, 64)        18496     
_________________________________________________________________
activation_3 (Activation)    (None, 14, 14, 64)        0         
_________________________________________________________________
conv2d_4 (Conv2D)            (None, 14, 14, 64)        36928     
_________________________________________________________________
activation_4 (Activation)    (None, 14, 14, 64)        0         
_________________________________________________________________
max_pooling2d_2 (MaxPooling2 (None, 7, 7, 64)          0         
_________________________________________________________________
conv2d_5 (Conv2D)            (None, 7, 7, 128)         73856     
_________________________________________________________________
activation_5 (Activation)    (None, 7, 7, 128)         0         
_________________________________________________________________
conv2d_6 (Conv2D)            (None, 7, 7, 256)         295168    
_________________________________________________________________
activation_6 (Activation)    (None, 7, 7, 256)         0         
_________________________________________________________________
flatten_1 (Flatten)          (None, 12544)             0         
_________________________________________________________________
dense_1 (Dense)              (None, 1024)              12846080  
_________________________________________________________________
dense_2 (Dense)              (None, 10)                10250     
=================================================================
Total params: 13,290,922
Trainable params: 13,290,922
Non-trainable params: 0
_________________________________________________________________
None
Train on 50000 samples, validate on 10000 samples
Epoch 1/100
2019-11-25 22:59:05.605543: I tensorflow/stream_executor/platform/default/dso_loader.cc:44] Successfully opened dynamic library libcublas.so.10.0
…
